…
Used Annotations descriptions: ['feet', 'left_hand', 'right_hand', 'tongue']
Used Annotations descriptions: ['feet', 'left_hand', 'right_hand', 'tongue']
============================================================================================================================================
Layer (type (var_name):depth-idx)        Input Shape               Output Shape              Param #                   Kernel Shape
============================================================================================================================================
ShallowFBCSPNet (ShallowFBCSPNet)        [1, 22, 1125]             [1, 4]                    --                        --
├─Ensure4d (ensuredims): 1-1             [1, 22, 1125]             [1, 22, 1125, 1]          --                        --
├─Rearrange (dimshuffle): 1-2            [1, 22, 1125, 1]          [1, 1, 1125, 22]          --                        --
├─CombinedConv (conv_time_spat): 1-3     [1, 1, 1125, 22]          [1, 40, 1101, 1]          36,240                    --
├─BatchNorm2d (bnorm): 1-4               [1, 40, 1101, 1]          [1, 40, 1101, 1]          80                        --
├─Expression (conv_nonlin_exp): 1-5      [1, 40, 1101, 1]          [1, 40, 1101, 1]          --                        --
├─AvgPool2d (pool): 1-6                  [1, 40, 1101, 1]          [1, 40, 69, 1]            --                        [75, 1]
├─Expression (pool_nonlin_exp): 1-7      [1, 40, 69, 1]            [1, 40, 69, 1]            --                        --
├─Dropout (drop): 1-8                    [1, 40, 69, 1]            [1, 40, 69, 1]            --                        --
├─Sequential (final_layer): 1-9          [1, 40, 69, 1]            [1, 4]                    --                        --
│    └─Conv2d (conv_classifier): 2-1     [1, 40, 69, 1]            [1, 4, 1, 1]              11,044                    [69, 1]
│    └─LogSoftmax (logsoftmax): 2-2      [1, 4, 1, 1]              [1, 4, 1, 1]              --                        --
│    └─Expression (squeeze): 2-3         [1, 4, 1, 1]              [1, 4]                    --                        --
============================================================================================================================================
Total params: 47,364
Trainable params: 47,364
Non-trainable params: 0
Total mult-adds (Units.MEGABYTES): 0.01
============================================================================================================================================
…
